
## HW5.0
## ANLY 590 Section 2
## Shengdan Jin


----- 1D-CNN ------

#######################
#### Training Info ####
#######################

Found 16483 unique tokens.
Shape of data tensor: (153, 100)
Shape of label tensor: (153,)
Model: "sequential_84"
_________________________________________________________________
Layer (type)                 Output Shape              Param #   
=================================================================
conv1d_70 (Conv1D)           (None, 98, 64)            256       
_________________________________________________________________
dropout_49 (Dropout)         (None, 98, 64)            0         
_________________________________________________________________
max_pooling1d_49 (MaxPooling (None, 49, 64)            0         
_________________________________________________________________
flatten_69 (Flatten)         (None, 3136)              0         
_________________________________________________________________
dense_119 (Dense)            (None, 100)               313700    
_________________________________________________________________
dense_120 (Dense)            (None, 1)                 101       
=================================================================
Total params: 314,057
Trainable params: 314,057
Non-trainable params: 0
_________________________________________________________________
3/3 [==============================] - 0s 3ms/step - loss: 0.0000e+00 - accuracy: 0.2604
1/1 [==============================] - 0s 18ms/step - loss: 0.0000e+00 - accuracy: 0.2083
1/1 [==============================] - 0s 145ms/step - loss: 0.0000e+00 - accuracy: 0.3636
…
