…
1/1 [==============================] - 0s 20ms/step - loss: 28.0096 - acc: 0.0000e+00
 fraction of times anomalies are detected 0.0






####---------------------------------------------------------------------------------------------####
####---------------------------------------------------------------------------------------------####


### HW6.2.py

###########################
##### Training Process ####
###########################

_________________________________________________________________
Layer (type)                 Output Shape              Param #   
=================================================================
conv2d_36 (Conv2D)           (None, 26, 26, 32)        320       
_________________________________________________________________
dense_20 (Dense)             (None, 26, 26, 90)        2970      
_________________________________________________________________
max_pooling2d_20 (MaxPooling (None, 13, 13, 90)        0         
_________________________________________________________________
conv2d_37 (Conv2D)           (None, 11, 11, 64)        51904     
_________________________________________________________________
max_pooling2d_21 (MaxPooling (None, 5, 5, 64)          0         
_________________________________________________________________
conv2d_38 (Conv2D)           (None, 3, 3, 64)          36928     
_________________________________________________________________
flatten_10 (Flatten)         (None, 576)               0         
_________________________________________________________________
dense_21 (Dense)             (None, 64)                36928     
_________________________________________________________________
dense_22 (Dense)             (None, 10)                650       
=================================================================
Total params: 129,700
Trainable params: 129,700
Non-trainable params: 0
_________________________________________________________________
Model: "sequential_17"
_________________________________________________________________
Layer (type)                 Output Shape              Param #   
=================================================================
conv2d_36 (Conv2D)           (None, 26, 26, 32)        320       
_________________________________________________________________
dense_20 (Dense)             (None, 26, 26, 90)        2970      
_________________________________________________________________
max_pooling2d_20 (MaxPooling (None, 13, 13, 90)        0         
_________________________________________________________________
conv2d_37 (Conv2D)           (None, 11, 11, 64)        51904     
_________________________________________________________________
max_pooling2d_21 (MaxPooling (None, 5, 5, 64)          0         
_________________________________________________________________
conv2d_38 (Conv2D)           (None, 3, 3, 64)          36928     
_________________________________________________________________
flatten_10 (Flatten)         (None, 576)               0         
_________________________________________________________________
dense_21 (Dense)             (None, 64)                36928     
_________________________________________________________________
dense_22 (Dense)             (None, 10)                650       
=================================================================
Total params: 129,700
Trainable params: 129,700
Non-trainable params: 0
_________________________________________________________________
Epoch 1/10
48/48 [==============================] - 30s 616ms/step - loss: 7.5488 - acc: 0.1463 - val_loss: 3.3945 - val_acc: 0.1157
Epoch 2/10
48/48 [==============================] - 33s 679ms/step - loss: 3.6104 - acc: 0.0975 - val_loss: 2.8058 - val_acc: 0.0989
…
1/1 [==============================] - 0s 284ms/step - loss: 22.2449 - acc: 0.0982
 fraction of times anomalies are detected 0.0981818214058876






####---------------------------------------------------------------------------------------------####
####---------------------------------------------------------------------------------------------####


### HW6.3.py

###########################
##### Training Process ####
###########################

_________________________________________________________________
Layer (type)                 Output Shape              Param #   
=================================================================
conv2d_3 (Conv2D)            (None, 30, 30, 32)        896       
_________________________________________________________________
dense_3 (Dense)              (None, 30, 30, 90)        2970      
_________________________________________________________________
max_pooling2d_2 (MaxPooling2 (None, 15, 15, 90)        0         
_________________________________________________________________
conv2d_4 (Conv2D)            (None, 13, 13, 64)        51904     
_________________________________________________________________
max_pooling2d_3 (MaxPooling2 (None, 6, 6, 64)          0         
_________________________________________________________________
conv2d_5 (Conv2D)            (None, 4, 4, 64)          36928     
_________________________________________________________________
flatten_1 (Flatten)          (None, 1024)              0         
_________________________________________________________________
dense_4 (Dense)              (None, 64)                65600     
_________________________________________________________________
dense_5 (Dense)              (None, 10)                650       
=================================================================
Total params: 158,948
Trainable params: 158,948
Non-trainable params: 0
_________________________________________________________________
Model: "sequential_1"
_________________________________________________________________
Layer (type)                 Output Shape              Param #   
=================================================================
conv2d_3 (Conv2D)            (None, 30, 30, 32)        896       
_________________________________________________________________
dense_3 (Dense)              (None, 30, 30, 90)        2970      
_________________________________________________________________
max_pooling2d_2 (MaxPooling2 (None, 15, 15, 90)        0         
_________________________________________________________________
conv2d_4 (Conv2D)            (None, 13, 13, 64)        51904     
_________________________________________________________________
max_pooling2d_3 (MaxPooling2 (None, 6, 6, 64)          0         
_________________________________________________________________
conv2d_5 (Conv2D)            (None, 4, 4, 64)          36928     
_________________________________________________________________
flatten_1 (Flatten)          (None, 1024)              0         
_________________________________________________________________
dense_4 (Dense)              (None, 64)                65600     
_________________________________________________________________
dense_5 (Dense)              (None, 10)                650       
=================================================================
Total params: 158,948
Trainable params: 158,948
Non-trainable params: 0
_________________________________________________________________
Epoch 1/10
40/40 [==============================] - 36s 886ms/step - loss: 13.7942 - acc: 0.1002 - val_loss: 10.0396 - val_acc: 0.0876
Epoch 2/10
40/40 [==============================] - 38s 946ms/step - loss: 10.0480 - acc: 0.1023 - val_loss: 13.6584 - val_acc: 0.1014
…
